Namespace(batch_size=1024, beta1=0.5, beta2=0.999, channels=1, d_conv_dim=64, d_lr=0.0004, dataroot='../data', dataset='mnist', epochs=10000, g_conv_dim=64, g_lr=0.0001, g_num=5, img_size=64, log_path='./logs', log_step=10, model='sagan', model_save_path='./models', model_save_step=1.0, num_workers=2, parallel=False, pretrained_model=None, sample_path='./samples', sample_step=100, train=True, use_tensorboard=True, version='1117_mnist_dcgan_Gf64_hatano', z_dim=100)
Generator(
  (l1): Sequential(
    (0): ConvTranspose2d(100, 512, kernel_size=(4, 4), stride=(1, 1), bias=False)
    (1): BatchNorm2d(512, eps=1e-05, momentum=0.1, affine=True, track_running_stats=True)
    (2): ReLU(inplace=True)
  )
  (l2): Sequential(
    (0): ConvTranspose2d(512, 256, kernel_size=(4, 4), stride=(2, 2), padding=(1, 1), bias=False)
    (1): BatchNorm2d(256, eps=1e-05, momentum=0.1, affine=True, track_running_stats=True)
    (2): ReLU(inplace=True)
  )
  (l3): Sequential(
    (0): ConvTranspose2d(256, 128, kernel_size=(4, 4), stride=(2, 2), padding=(1, 1), bias=False)
    (1): BatchNorm2d(128, eps=1e-05, momentum=0.1, affine=True, track_running_stats=True)
    (2): ReLU(inplace=True)
  )
  (l4): Sequential(
    (0): ConvTranspose2d(128, 64, kernel_size=(4, 4), stride=(2, 2), padding=(1, 1), bias=False)
    (1): BatchNorm2d(64, eps=1e-05, momentum=0.1, affine=True, track_running_stats=True)
    (2): ReLU(inplace=True)
  )
  (last): Sequential(
    (0): ConvTranspose2d(64, 1, kernel_size=(4, 4), stride=(2, 2), padding=(1, 1), bias=False)
    (1): Tanh()
  )
  (attn2): Attention(
    (theta): Conv2d(64, 8, kernel_size=(1, 1), stride=(1, 1), bias=False)
    (phi): Conv2d(64, 8, kernel_size=(1, 1), stride=(1, 1), bias=False)
    (g): Conv2d(64, 32, kernel_size=(1, 1), stride=(1, 1), bias=False)
    (o): Conv2d(32, 64, kernel_size=(1, 1), stride=(1, 1), bias=False)
  )
)
Discriminator(
  (l1): Sequential(
    (0): Conv2d(1, 64, kernel_size=(4, 4), stride=(2, 2), padding=(1, 1), bias=False)
    (1): LeakyReLU(negative_slope=0.2, inplace=True)
  )
  (l2): Sequential(
    (0): Conv2d(64, 128, kernel_size=(4, 4), stride=(2, 2), padding=(1, 1), bias=False)
    (1): LeakyReLU(negative_slope=0.2, inplace=True)
  )
  (l3): Sequential(
    (0): Conv2d(128, 256, kernel_size=(4, 4), stride=(2, 2), padding=(1, 1), bias=False)
    (1): LeakyReLU(negative_slope=0.2, inplace=True)
  )
  (l4): Sequential(
    (0): Conv2d(256, 512, kernel_size=(4, 4), stride=(2, 2), padding=(1, 1), bias=False)
    (1): LeakyReLU(negative_slope=0.2, inplace=True)
  )
  (attn2): Attention(
    (theta): Conv2d(512, 64, kernel_size=(1, 1), stride=(1, 1), bias=False)
    (phi): Conv2d(512, 64, kernel_size=(1, 1), stride=(1, 1), bias=False)
    (g): Conv2d(512, 256, kernel_size=(1, 1), stride=(1, 1), bias=False)
    (o): Conv2d(256, 512, kernel_size=(1, 1), stride=(1, 1), bias=False)
  )
  (last_adv): Sequential(
    (0): Conv2d(512, 1, kernel_size=(4, 4), stride=(1, 1), bias=False)
  )
)
Elapsed [0:00:25.197939], G_step [0/10000], D_step[0/10000], d_out_gp: 0.3410, g_loss: 4.6868, 
Elapsed [0:00:25.138364], G_step [10/10000], D_step[10/10000], d_out_gp: 0.4765, g_loss: 2.4474, 
Elapsed [0:00:25.163696], G_step [20/10000], D_step[20/10000], d_out_gp: 0.6423, g_loss: 1.3751, 
Elapsed [0:00:29.196209], G_step [30/10000], D_step[30/10000], d_out_gp: 0.9619, g_loss: 0.6877, 
…
